Flappy Bird - Checkers - Connect Four - Snake/snake/model/model.pth (torch, 16787 bytes, 4 tensors)

linear1.weight f4 [256, 11]
0	0xbe97fb36	-0.29683846
1	0xbe264b03	-0.16239552
2	0xbe24a444	-0.16078287
3	0xbe3a30e0	-0.18182707
4	0xbe540cf3	-0.20708065
5	0xbe69a820	-0.22818041
6	0x3d001c33	0.031276893
7	0x3e83b693	0.2572523
8	0x3cdf5941	0.02726424
9	0xbe2ed639	-0.17073907
10	0xbe90c834	-0.28277743
11	0x3e7d23c0	0.24720669
12	0x3d5e7b4b	0.0543168
13	0x3e3c56e9	0.18392529
14	0xbe91a8c3	-0.28449067
15	0xbde02e9f	-0.10946392
16	0x3e66cb7f	0.22538565
17	0xbe0832ed	-0.13300677
18	0xbe8b92f8	-0.27260566
19	0xbc627d38	-0.0138238
20	0x3e21053b	0.15724652
21	0x3dbaa1a4	0.09112862
22	0x3da095b7	0.07841056
23	0xbe460b94	-0.19340354
24	0xbe84bc28	-0.25924802
25	0xbe14a04f	-0.14514278
26	0xbe91cda1	-0.28477195
27	0x3e5f07d9	0.21780337
28	0xbe3bc722	-0.18337682
29	0x3e8e9d60	0.27854443
30	0x3e8873af	0.2665076
31	0xbd610375	-0.054934938
32	0xbdcd1424	-0.10013607
33	0xbdb85646	-0.0900083
34	0x3d83d81e	0.064377055
35	0xbd83af1a	-0.06429882
36	0xbe76a712	-0.2408717
37	0xbe58664d	-0.21132775
38	0xbda4b871	-0.08042992
39	0xbe9129a2	-0.28352076
40	0x3c8c41bd	0.01712119
41	0xbdc55a60	-0.09636378
42	0xbe5eb15c	-0.21747345
43	0xbe20473a	-0.15652171
44	0x3e5e4fb0	0.21710086
45	0xbe89f9f0	-0.269485
46	0x3ba7b000	0.0051174164
47	0x3de9a12b	0.114076935
48	0xbe7e9aab	-0.24863689
49	0xbda72986	-0.08162217
50	0xbd0e61c0	-0.03476119
51	0x3e2e4d76	0.17021737
52	0x3ccfdee0	0.02537483
53	0xbd945024	-0.07241848
54	0xbe859e5d	-0.26097384
55	0xbdd21957	-0.102587394
56	0xbcd528e0	-0.026020467
57	0xbe315f43	-0.17321496
58	0xbba15076	-0.004922922
59	0x3e4f8d42	0.2026873
60	0x3e878386	0.26467532
61	0x3e8912b3	0.2677208
62	0xbe8b3a19	-0.27192762
63	0x3e61e9c2	0.22061828
64	0xbe9445ff	-0.28959653
65	0xbe75b8bf	-0.23996256
66	0xbe5d0043	-0.21582131
67	0xbe29d632	-0.16585615
68	0xbe1dc73e	-0.15408036
69	0xbd21e84c	-0.039528176
70	0x3e95e9ff	0.29280087
71	0xbc243239	-0.01002174
72	0x3ddc64f9	0.107614465
73	0x3e1bbed3	0.15209512
74	0xbe610a71	-0.2197664
75	0x3e17cee2	0.14825013
76	0xbde7c24c	-0.11316356
77	0x3ceea9ee	0.029133763
78	0x3d879bed	0.06621537
79	0xbdd6b837	-0.10484355
80	0xbd262243	-0.04056002
81	0xbd99b73f	-0.075056545
82	0x3e4f0cb5	0.20219691
83	0x3d02f27f	0.031969544
84	0xbd6106aa	-0.054937996
85	0x3d9ab0cf	0.07553255
86	0x3dfcff5d	0.12353394
87	0x3e24465c	0.16042465
88	0x3e62072a	0.22073045
89	0xbd702d85	-0.05863716
90	0x3ce4e41d	0.027940804
91	0x3df64cea	0.12026389
92	0x3daede59	0.08538503
93	0xbc603610	-0.0136847645
94	0x3e0e237c	0.13880724
95	0xbcdd32eb	-0.027001819
96	0xbe7c6ae6	-0.24650154
97	0x3d1dd39c	0.038531885
98	0xbe4a7234	-0.19770128
99	0xbd486170	-0.04892105
100	0x3dd026b2	0.101636305
101	0x3e2a8299	0.16651382
102	0x3e858466	0.26077574
103	0xbc6c3ce0	-0.014418811
104	0x3e57e440	0.21083164
105	0x3df71fb4	0.12066594
106	0x3d35660f	0.044286784
107	0xbe67716c	-0.22601861
108	0xbc33d8b7	-0.010976962
109	0xbe879711	-0.26482442
110	0xbdd55304	-0.104162246
111	0x3d843c39	0.06456799
112	0x3e211f40	0.15734577
113	0xbe947105	-0.28992477
114	0x3e7c9f94	0.24670249
115	0xbd05bc7c	-0.032650456
116	0xbda0302b	-0.07821687
117	0x3e342f0a	0.17596069
118	0x3cbbdb6d	0.022931779
119	0x3e68cdc7	0.22734748
120	0x3e3400ed	0.17578478
121	0x3e29b6b0	0.16573596
122	0x3df5c75c	0.120009154
123	0x3d2f3b3e	0.042781107
124	0x3d2b326a	0.041796125
125	0x3d1f418e	0.038880877
126	0xbe489e8f	-0.19591735
127	0xbd89b7e6	-0.06724529
128	0x3e6df6fb	0.23238747
129	0xbe07a70e	-0.1324732
130	0x3e8feaf7	0.2810895
131	0x3e349a33	0.17636947
132	0x3e728511	0.23683573
133	0x3e0c60bf	0.1370878
134	0x3e9e641c	0.30935752
135	0x3dbe8f89	0.09304721
136	0x3e74508d	0.23858853
137	0x3e962c91	0.29330876
138	0x3df22d16	0.11825006
139	0xbe4f63bb	-0.20252888
140	0x3e207d11	0.15672709
141	0x3ce2a0f5	0.02766464
142	0x3e899885	0.26874176
143	0x3d586a4f	0.05283576
144	0x3da05b19	0.078298755
145	0x3e72bd4a	0.2370502
146	0x3e261cb2	0.16221884
147	0xbb730585	-0.0037082147
148	0x3ceea6f0	0.029132336
149	0xbe2c401d	-0.16821332
150	0xbe96efc4	-0.29479802
151	0xbd898a79	-0.06715865
152	0x3e2fffa2	0.1718736
153	0xbe4ecf38	-0.20196235
154	0x3e41c1c6	0.18921575
155	0x3e3c2dd6	0.1837686
156	0x3d8b7d29	0.06810982
157	0x3e415e83	0.1888371
158	0xbe4fccff	-0.20293044
159	0x3e21ecc3	0.15812974
160	0xbe478d32	-0.19487455
161	0x3d96c125	0.07361058
162	0x3d8fe73c	0.07026526
163	0xbe8069a3	-0.25080594
164	0x3e385f57	0.1800512
165	0x3da78c3b	0.08181044
166	0x3dc9292c	0.09822306
167	0x3dd49def	0.10381686
168	0xbd0d401f	-0.03448498
169	0xbd4d6e52	-0.050154038
170	0xbc4424ec	-0.0119716935
171	0xbe3e8a6b	-0.1860749
172	0x3c84db8b	0.016217967
173	0xbe6f7ba7	-0.23387013
174	0xbe0b1712	-0.1358302
175	0x3e5cf7a0	0.21578836
176	0xbe6e4a91	-0.23270632
177	0xbd6b592c	-0.057458088
178	0xbb99dfc0	-0.0046958625
179	0xbe9114c2	-0.2833615
180	0xbd23f8b4	-0.040032104
181	0xbdaa2042	-0.08306934
182	0x3df3cc5e	0.11904214
183	0xbe972189	-0.29517773
184	0xbd3ca218	-0.046053022
185	0x3db3b358	0.087744415
186	0x3e84a834	0.2590958
187	0xbda1d7f3	-0.07902517
188	0xbe3fc3fa	-0.18727103
189	0x3e0811a7	0.13287984
190	0xbe805acd	-0.25069275
191	0x3ea1e840	0.31622505
192	0x3e2417f5	0.16024764
193	0xbcb3b9c0	-0.021939158
194	0x3de3a35c	0.11115143
195	0x3d997120	0.0749228
196	0xbe833f4b	-0.25634226
197	0xbddb1c71	-0.10698784
198	0xbe8e1df8	-0.2775724
199	0x3e9facd8	0.31186557
200	0x3d32d691	0.043661658
201	0x3e226aa9	0.15861
202	0xbe820eea	-0.25402004
203	0x3c2ff5ee	0.010739787
204	0x3e81d200	0.2535553
205	0xbd9bbd15	-0.07604424
206	0xbd994cce	-0.074853525
207	0xbe516c1f	-0.20451401
208	0xbe1754d3	-0.14778452
209	0x3e2c818a	0.1684629
210	0xbe7bf736	-0.24606022
211	0xbded76c6	-0.1159492
212	0x3d16d5ee	0.036825113
213	0xbdb075ee	-0.08616243
214	0x3e2ce70b	0.16885011
215	0x3e4dcbb7	0.20097242
216	0xbe49ce33	-0.19707565
217	0x3e534b18	0.20634115
218	0x3e3570b9	0.17718782
219	0xbd0cccff	-0.034375187
220	0x3de8ca37	0.113666944
221	0xbe8d08f9	-0.27545908
222	0x3e2b0eaa	0.16704813
223	0x3e76d89e	0.2410607
224	0xbcf071e6	-0.029351186
225	0x3da9a377	0.082831316
226	0xbd370c47	-0.044689443
227	0xbe5de152	-0.21667984
228	0xbe90bea1	-0.28270438
229	0x3c23b312	0.009991424
230	0x3d36f583	0.044667732
231	0x3d73bf48	0.059508592
232	0xbe8875a0	-0.2665224
233	0x3e71dacc	0.2361862
234	0xbce38000	-0.027770996
235	0xbcbe6410	-0.023241073
236	0xbde54716	-0.11195199
237	0x3dcf4d00	0.101221085
238	0x3d856759	0.065138526
239	0xbde35a90	-0.11101258
240	0x3dbb10ea	0.091340855
241	0xbe7a51aa	-0.24445215
242	0xbd810f84	-0.063017875
243	0x3e471aa0	0.1944375
244	0x3e3b96d3	0.18319254
245	0x3ccbedf1	0.024893733
246	0xbe832b8b	-0.25619158
247	0x3e832f39	0.25621966
248	0x3e1eb12a	0.1549727
249	0x3e06e38b	0.13172738
250	0x3e05c4e2	0.13063386
251	0xbdf1c453	-0.11805024
252	0x3e31c66c	0.17360848
253	0xbe75aefb	-0.23992531
254	0xbe19bdc4	-0.15013796
255	0x3e9836c0	0.2972927

linear1.bias f4 [256]
0	0x3d936e40	0.07198763
1	0xbdbfe17d	-0.0936918
2	0x3e8bc8ac	0.27301538
3	0x3e195cdf	0.14976834
4	0xbe944468	-0.2895844
5	0xbe00b925	-0.12570627
6	0xbd912bbe	-0.07088421
7	0xbcf7c080	-0.030243158
8	0x3e22ac52	0.15886047
9	0xbe6cf70f	-0.2314112
10	0xbe84baa0	-0.25923634
11	0x3d4754e5	0.048664946
12	0xbe84912d	-0.2589201
13	0x3d8e6d57	0.06954449
14	0x3e0c42a0	0.1369729
15	0x3e392693	0.18081121
16	0xbe845f7e	-0.25854105
17	0xbe3a361b	-0.18184702
18	0x3e93bed1	0.2885652
19	0xbd61eb9d	-0.05515634
20	0x3e88663a	0.26640493
21	0xbe2f7303	-0.17133717
22	0x3e85c849	0.26129368
23	0x3e94e0f6	0.29077882
24	0x3be3a2e3	0.006946908
25	0x3c11f833	0.008909273
26	0x3d2948b9	0.04132912
27	0xbe4621d5	-0.19348843
28	0xbd14eea9	-0.036360417
29	0xbe25b0ad	-0.16180678
30	0x3cbc4927	0.0229841
31	0x3e22a8f7	0.15884767
32	0x3e22b50c	0.15889376
33	0x3e439cb5	0.19102748
34	0xbe4b0d55	-0.19829305
35	0x3e28d507	0.16487513
36	0xbe1c366a	-0.15255132
37	0xbd5d0377	-0.053958382
38	0xbe9fb5dd	-0.31193438
39	0xbe41d131	-0.18927456
40	0xbd2244ab	-0.039616268
41	0x3e3a5207	0.18195353
42	0xbc1d33dd	-0.009594885
43	0x3e18efdf	0.14935254
44	0xbe1bb9a7	-0.1520754
45	0x3e9fe90e	0.31232494
46	0xbe0ab39b	-0.13545077
47	0xbdd620da	-0.10455485
48	0x3e061170	0.1309259
49	0x3c97da69	0.018536763
50	0xbdfcaf11	-0.12338079
51	0x3d0c9ef0	0.034331262
52	0xbdb74b5d	-0.08949921
53	0x3da4e2d9	0.0805108
54	0x3e73533b	0.23762219
55	0xbe7ba2a3	-0.2457376
56	0x3e3ccf70	0.18438506
57	0x3e2ffad0	0.17185521
58	0x3dc81833	0.09770241
59	0x3d90602f	0.070495956
60	0x3d365a68	0.044519812
61	0x3d88bd24	0.06676701
62	0x3e438fb9	0.19097795
63	0xbe820006	-0.25390643
64	0xbb9e3cea	-0.004829039
65	0x3d302ef5	0.04301353
66	0xbe29f7c2	-0.16598418
67	0x3e4e56eb	0.20150344
68	0xbd037741	-0.03209615
69	0x3e639824	0.22226006
70	0xbdb4b436	-0.08823435
71	0xbd9ba6fb	-0.07600208
72	0xbd847873	-0.06468286
73	0x3e9d28e6	0.30695266
74	0xbe80a311	-0.2512441
75	0x3dd4db82	0.1039343
76	0xbd048547	-0.032353666
77	0xbd886cee	-0.06661402
78	0x3d9017db	0.070358
79	0xbe7c09bb	-0.24613087
80	0x3e151138	0.1455735
81	0x3d249474	0.04018064
82	0x3d9fbcc4	0.07799676
83	0xbdabf2f7	-0.08395951
84	0xbd8480e5	-0.06469897
85	0xbe1fccc7	-0.1560546
86	0xbcdedf90	-0.027206212
87	0xbd8a2aca	-0.067464426
88	0x3dc5fe58	0.09667653
89	0xbb9b6503	-0.004742266
90	0x3e8aa913	0.27082118
91	0xbe58b708	-0.21163571
92	0xbe71b925	-0.23605783
93	0x3e0e1138	0.13873756
94	0xbd1e4ae7	-0.03864565
95	0x3cf6b004	0.030113228
96	0x3e109fd7	0.14123474
97	0xbdffdf43	-0.12493756
98	0x3da687ed	0.081313945
99	0x3e4a19f2	0.1973646
100	0xbc008921	-0.007845194
101	0x3de35252	0.11099686
102	0xbe8ac793	-0.27105388
103	0x3dcededd	0.101011015
104	0x3dc987f2	0.09840383
105	0x3e49a51a	0.19691887
106	0x3e3a2898	0.18179548
107	0xbd9f829f	-0.07788586
108	0xbccfbd41	-0.025358798
109	0x3d8225f5	0.06354896
110	0x3da91e89	0.08257777
111	0x3ea76873	0.32696876
112	0x3e3c99e9	0.18418087
113	0xbe140315	-0.144543
114	0xbd4d471a	-0.050116636
115	0x3e80a9f9	0.2512968
116	0xbe75d6cc	-0.2400772
117	0xbe5967be	-0.21230981
118	0xbe169f1f	-0.14709137
119	0x3ddc4332	0.10755004
120	0x3e005f13	0.12536268
121	0x3e4cb98b	0.19992654
122	0xbc81eb3d	-0.01585924
123	0x3e7f96fa	0.24959937
124	0x3e416847	0.18887435
125	0xbdf4b5e7	-0.119487576
126	0x3dd0cf20	0.10195756
127	0xbe78a1b4	-0.24280435
128	0xbe6f822b	-0.23389499
129	0xbcaf9887	-0.021435035
130	0xbe2ae0a7	-0.1668726
131	0x3d92801b	0.071533404
132	0xbe2c1ffe	-0.16809079
133	0xbe1c3527	-0.15254651
134	0x3e921bc8	0.2853682
135	0xbdf23836	-0.11827128
136	0xbbc98a5f	-0.0061505283
137	0xbc489fbb	-0.012245114
138	0xbe789111	-0.24274088
139	0x3c051605	0.008122926
140	0x3d96c17b	0.07361122
141	0x3e8abcd7	0.27097198
142	0xbd153d8e	-0.036435656
143	0xbdd82fda	-0.10556002
144	0x3de72623	0.11286571
145	0x3c17d89d	0.009267953
146	0x3dcde043	0.1005254
147	0x3cfe0e30	0.031012625
148	0x3e435c04	0.1907807
149	0x3e565f94	0.20934898
150	0x3d153c17	0.03643426
151	0x3d1b76e8	0.037955195
152	0x3d56d432	0.05244846
153	0x3da95ff6	0.08270256
154	0xbe34af90	-0.17645097
155	0xbe0bf3e4	-0.13667256
156	0x3e3ef417	0.186478
157	0xbb45cad7	-0.0030180716
158	0x3e4a46c5	0.19753559
159	0x3e4d785f	0.20065449
160	0x3e6b61ef	0.22986577
161	0x3e87e3fa	0.2654112
162	0x3be08321	0.0068515693
163	0xbe8e2fa9	-0.27770737
164	0xbdc32e35	-0.09530298
165	0x3e1f7d45	0.1557513
166	0xbd8e35c8	-0.06943852
167	0xbe35ca11	-0.17752863
168	0x3e02f0d1	0.12787177
169	0x3e88c607	0.26713583
170	0x3e4b60bd	0.19861121
171	0xbe495c50	-0.1966412
172	0x3e266963	0.1625114
173	0x3d9fe8d0	0.07808077
174	0x3dc4416b	0.0958279
175	0x3e5b6c4f	0.21428035
176	0x3ce5abe6	0.02803607
177	0x3e01a2c4	0.12659746
178	0x3e8dea54	0.2771784
179	0x3d11c803	0.035591137
180	0xbe233661	-0.15938713
181	0xbd329db8	-0.043607444
182	0x3e254f9c	0.1614365
183	0x3d0a6627	0.033788826
184	0xbe5a3c07	-0.21311961
185	0xbe7f9c08	-0.24961865
186	0x3e1cec63	0.1532455
187	0xbea12da5	-0.31480137
188	0xbdfa2d00	-0.12215614
189	0x3d0ea588	0.03482583
190	0x3cf7654a	0.030199666
191	0xbe07456b	-0.13210075
192	0xbe8dfc96	-0.2773177
193	0x3d878d68	0.06618768
194	0xbe2af49d	-0.16694875
195	0x3e418480	0.18898201
196	0xbe0a4075	-0.13501151
197	0x3d92d8d2	0.071702614
198	0xbd814228	-0.063114464
199	0xbe171295	-0.14753182
200	0x3e10a48a	0.14125267
201	0x3df3de6e	0.119076595
202	0xbb439625	-0.0029844132
203	0xbe2405bc	-0.16017812
204	0xbe5c3818	-0.21505773
205	0x3e219b24	0.15781838
206	0xbd62ed7e	-0.05540227
207	0x3caad762	0.020854656
208	0xbd2a6a1b	-0.041605096
209	0x3c32e6a2	0.010919245
210	0x3e28c6e7	0.16482125
211	0xbd9fa1f7	-0.07794564
212	0xbe6d87a6	-0.23196277
213	0x3e7929cc	0.2433235
214	0x3dc18c84	0.09450629
215	0xbe29904b	-0.1655895
216	0xbce47053	-0.027885592
217	0xbe655474	-0.22395498
218	0xbe0ee5e2	-0.13954881
219	0x3e8a1ac8	0.26973557
220	0xbe94799f	-0.2899904
221	0xbe2fcde8	-0.17168391
222	0x3da2ce94	0.07949558
223	0xbe50e780	-0.2040081
224	0xbe62f08e	-0.22162077
225	0xbe1591f8	-0.14606464
226	0x3e666486	0.22499284
227	0xbd91f605	-0.071270026
228	0x3e3705cb	0.17873304
229	0x3e5871a0	0.21137094
230	0x3e53f3b6	0.20698437
231	0xbe29da79	-0.16587247
232	0xbdc2e8b4	-0.09517041
233	0xbe4b438e	-0.19849989
234	0x3d933f89	0.07189853
235	0x3dcd8550	0.10035193
236	0xbe7a593a	-0.244481
237	0x3e05c6d9	0.13064136
238	0x3dc2eae3	0.09517457
239	0xbd783370	-0.06059593
240	0xbe4430b2	-0.19159201
241	0x3e0b2807	0.13589488
242	0xbdc8711f	-0.09787201
243	0xbe8c0ede	-0.27355093
244	0x3ddaa7e3	0.10676553
245	0x3e6a7aca	0.22898403
246	0xbd9a68f8	-0.075395525
247	0x3c24692d	0.0100348415
248	0x3d73dbdf	0.059535857
249	0xbe872f23	-0.2640315
250	0xbe5e392f	-0.21701501
251	0xbc9b7769	-0.018977838
252	0xbdec3706	-0.115339324
253	0xbe7053ba	-0.23469439
254	0xbe222ae2	-0.15836671
255	0x3d27e23e	0.040987246

linear2.weight f4 [3, 256]
0	0xbccf4bd2	-0.025304709
1	0xbc7cd94c	-0.015432667
2	0xbc0b3bfc	-0.008498188
3	0xbd4461fc	-0.047945008
4	0xbbc47370	-0.0059952065
5	0x3cf6b5da	0.03011601
6	0xbca8ab54	-0.020589508
7	0xbd86149a	-0.06546898
8	0x3bdb2896	0.006688188
9	0xbcbb914e	-0.022896435
10	0xbd06575f	-0.032798167
11	0x3d193bb8	0.037410468
12	0xbd19eb5e	-0.03757798
13	0xbc8eec45	-0.017446646
14	0x3ba7a192	0.005115696
15	0x3ca313d0	0.019906908
16	0x3cc70375	0.02429364
17	0x3cc9c81d	0.024631554
18	0x3d8a4db5	0.06753103
19	0xbd1a428f	-0.03766113
20	0x3c94f21d	0.018181855
21	0x3d2c81de	0.04211604
22	0x3be3e291	0.006954499
23	0xbbdf8ecb	-0.006822442
24	0x3d266d50	0.040631592
25	0x3c2a265d	0.010385123
26	0x3ade82dc	0.0016976255
27	0xbcd2bbd8	-0.025724337
28	0xbc9dbad8	-0.019254133
29	0x3b7c901f	0.0038538051
30	0xbd6e57b9	-0.058189128
31	0x3d708647	0.058721807
32	0x3d112832	0.035438724
33	0xbd311bc9	-0.04323939
34	0xbca4d6c8	-0.020121947
35	0x3c4e24d1	0.01258202
36	0x3cb925d7	0.022601051
37	0xbb068485	-0.0020525765
38	0x3d57afde	0.052657954
39	0x3da62a63	0.081135534
40	0x3c74fd82	0.014953019
41	0x3ce764e1	0.028246345
42	0xba4f55f0	-0.0007909229
43	0xbda8ba63	-0.082386754
44	0x3c6d8f4c	0.014499497
45	0xbd955088	-0.07290751
46	0xbd46383a	-0.048393466
47	0xbd49e80a	-0.049293555
48	0xbcfea717	-0.031085534
49	0x3d37c4f7	0.044865575
50	0xbd81816c	-0.063235134
51	0xbd0ade1c	-0.033903226
52	0xbb2d7ed6	-0.0026473305
53	0x3b5b4552	0.0033458066
54	0x3cecfe96	0.02892999
55	0xbd7e269e	-0.062048547
56	0x3c3c083b	0.011476572
57	0x3ca06914	0.019581355
58	0x3c81d613	0.015849149
59	0x3ce2f4d3	0.027704632
60	0x3d19a0a5	0.03750672
61	0x3d5c52f6	0.053790055
62	0xbd35e509	-0.044407878
63	0xbd8a3191	-0.06747735
64	0xbcc759e8	-0.024334863
65	0x3c7fd598	0.01561489
66	0xbd0b392e	-0.033990078
67	0x3d01cdce	0.03169041
68	0x3d6e9cb4	0.058254912
69	0xbd689e10	-0.056791365
70	0x3c1482b0	0.009064361
71	0x3cdf75c9	0.027277844
72	0x3d2bfebd	0.041990984
73	0xbd1ccd91	-0.03828198
74	0xbd9389e6	-0.072040364
75	0xbc637520	-0.013882905
76	0xbd946c49	-0.07247216
77	0x3ba573d4	0.005049208
78	0x3ce1999f	0.027539073
79	0x3d5b53c2	0.053546675
80	0x3c91e9e1	0.017811717
81	0x3b8d91f6	0.0043203784
82	0x3d51242a	0.05105988
83	0xbd422652	-0.047399826
84	0xbc224660	-0.009904474
85	0xbd7469d1	-0.059671227
86	0xbd65fc3d	-0.056148756
87	0x3c37fcdd	0.011229721
88	0xbd76d067	-0.06025734
89	0xbc7dcff3	-0.0154914735
90	0x3d6b68af	0.05747288
91	0xbcd2776c	-0.02569171
92	0x3c1bc191	0.009506599
93	0xbc58d0fe	-0.013233421
94	0xbd4f9ed4	-0.05068858
95	0x3d340ff0	0.04396051
96	0x3c9fccdc	0.019506864
97	0xbc73c8e1	-0.014879436
98	0xbd49a6b7	-0.049231257
99	0x3bde4647	0.00678328
100	0xbd46a493	-0.048496794
101	0x3d51a726	0.051184796
102	0xbd785ded	-0.06063645
103	0x3cf5109e	0.02991515
104	0x3d96098b	0.07326039
105	0xbd5488cb	-0.05188827
106	0x3ce21fde	0.027603086
107	0x3c4cb447	0.012494153
108	0xbca181ad	-0.019715155
109	0xbd31fcfd	-0.04345416
110	0x3dbd31a5	0.092379846
111	0xbccb3d35	-0.02480946
112	0x3a900499	0.0010987698
113	0xbc8150dc	-0.015785627
114	0xbc934d81	-0.017981293
115	0xbd3bd5f5	-0.045858342
116	0xbd6f4cc8	-0.058422834
117	0x3d2ffcb3	0.042965602
118	0xbc567457	-0.013089261
119	0xbcf43aa8	-0.029813126
120	0x3b81d7d1	0.003962495
121	0x3d6c8c31	0.057750884
122	0x3d7f9ddf	0.062406417
123	0x39aec88c	0.00033337285
124	0x3ce4d2cc	0.027932547
125	0x3d00004c	0.031250283
126	0x3d50ea3b	0.05100463
127	0x3d4f146c	0.050556585
128	0xbd5b52b2	-0.05354566
129	0x3ca75bba	0.02042948
130	0xbd99a591	-0.075022824
131	0xbce99cf2	-0.02851722
132	0xbcc9ee06	-0.024649631
133	0x3b44028e	0.002990875
134	0xbd29586b	-0.041344088
135	0xbd279fbc	-0.04092382
136	0x3b4135c8	0.002948152
137	0xbcbc5aae	-0.022992458
138	0xbd6c52c0	-0.057696104
139	0xbaa5dea7	-0.0012654857
140	0x3c9e7cea	0.019346673
141	0xbd3c8f89	-0.046035323
142	0x3d80a0cf	0.06280672
143	0xbd27e324	-0.040988103
144	0xbd4bc47e	-0.049747936
145	0xbb87e985	-0.0041477107
146	0xbbb5557a	-0.0055338712
147	0xbccc93b8	-0.024972782
148	0x3d21d013	0.039505076
149	0x3c99c00b	0.018768331
150	0x3b98070d	0.0046395124
151	0x3d392731	0.04520339
152	0xbd15050a	-0.03638176
153	0xbd4cfa49	-0.050043378
154	0xbd3e7934	-0.046502307
155	0xbceb9ad5	-0.028760353
156	0x3b67da32	0.0035377857
157	0xbd83fcee	-0.06444727
158	0x3c98732a	0.018609602
159	0xbd6fac80	-0.05851412
160	0xbc23f632	-0.010007428
161	0xbd551dc4	-0.05203034
162	0xbcfcd0c8	-0.030861273
163	0x3bc45662	0.005991743
164	0x3d26faac	0.040766403
165	0xbc9ce28f	-0.019151
166	0x3c164fc1	0.009174288
167	0x3d67aea0	0.05656302
168	0x3bfeca66	0.0077755926
169	0xbc2a22a5	-0.010384236
170	0xbcacd51e	-0.021097716
171	0xbc41c488	-0.011826642
172	0xbca2c5f6	-0.019869786
173	0x3d687b27	0.056758072
174	0xbc305fe2	-0.010765048
175	0x3d598b37	0.05311128
176	0xbcffcf15	-0.031226674
177	0xbcdfcc70	-0.027319163
178	0xbd2e2acf	-0.042521294
179	0xbcd0244b	-0.02540793
180	0x3b1977ca	0.0023417347
181	0x3d6e2f44	0.058150545
182	0x3d107fc6	0.035278104
183	0xbd179ab1	-0.03701276
184	0x3bc2864d	0.00593642
185	0x3d53fd2e	0.051755123
186	0x3a773d16	0.0009431405
187	0xbbab222d	-0.00522258
188	0x3c8c856a	0.01715346
189	0x3c507571	0.012723313
190	0xbc0bbf5b	-0.008529509
191	0x3c858ee7	0.016303493
192	0x3d0946b9	0.033514712
193	0xbc9606f1	-0.018313857
194	0x3dad8aaa	0.08473714
195	0x3d217efc	0.039427742
196	0x3d2a3927	0.04155841
197	0x3d482bdf	0.048869964
198	0x3c685450	0.014180258
199	0x3d65b79b	0.056083303
200	0x3ccdedc0	0.025137782
201	0xbd4fef16	-0.05076512
202	0x3c9ce918	0.019154117
203	0xbdabcb4d	-0.08388386
204	0xbc4979ee	-0.012297137
205	0x3d1fc509	0.039006267
206	0xbc3245ad	-0.01088087
207	0x3d3aae35	0.045576293
208	0xbd597f6c	-0.053100035
209	0xbdc29698	-0.0950138
210	0xbda58cc0	-0.080834866
211	0x3cbb1121	0.022835316
212	0x3d5eabee	0.054363184
213	0x3d3339fa	0.043756463
214	0xbb99be1c	-0.0046918523
215	0x3daf14e3	0.08548906
216	0x3c5619c7	0.013067669
217	0xbdbbe6f0	-0.09174907
218	0x3c448bf5	0.011996259
219	0x3cecc92a	0.028904516
220	0x3c53b4a6	0.012921488
221	0xbd34000a	-0.04394535
222	0x3d01c853	0.031685185
223	0x3cbaefde	0.022819456
224	0x3d756753	0.05991299
225	0xbc9a6182	-0.018845323
226	0xbcc6a521	-0.024248661
227	0x3ca31928	0.019909456
228	0xbd8925d2	-0.06696667
229	0xbd36725b	-0.04454265
230	0xbd44e911	-0.048073832
231	0xbd89ffe4	-0.067382604
232	0x3c96e676	0.01842044
233	0xbd1f4906	-0.038888
234	0xbc9aeab8	-0.01891075
235	0x3c3983f8	0.011322968
236	0xbc25e1a3	-0.010124597
237	0xbd7e83d0	-0.062137425
238	0x3d4d3c42	0.050106294
239	0xbd7f7091	-0.06236321
240	0x3d0246b5	0.031805713
241	0xbd0461fd	-0.03232001
242	0xbc2ae96a	-0.010431627
243	0xbd350538	-0.04419443
244	0x3d45ba76	0.048273526
245	0x3ae170e0	0.0017199777
246	0xbcd01cd0	-0.025404364
247	0xbd8a0989	-0.067401
248	0xbcf3cb93	-0.029760158
249	0x3d105d9c	0.035245523
250	0xbd41a9c0	-0.047281027
251	0x3d414887	0.047188308
252	0x3b820c58	0.0039687566
253	0x3ce48c73	0.027899003
254	0xbcfb2a08	-0.03065969
255	0xbd3875e6	-0.04503431

linear2.bias f4 [3]
0	0xbd7bb200	-0.06144905
1	0x3ce802a4	0.028321572
2	0x3d276036	0.04086324
