Flappy Bird - Checkers - Connect Four - Snake/model/model.pth (torch, 16787 bytes, 4 tensors)

linear1.weight f4 [256, 11]
-0.017681718 0.25722718 0.08818265 -0.28213954 -0.091992475 0.19242653 0.007386006 0.09010243
0.05179014 0.23122026 -0.060369942 -0.11943251 -0.07694337 0.20331602 -0.18969084 0.060928717
0.28240728 -0.19748038 -0.2029227 0.078095466 0.28725433 -0.23920736 0.21891427 -0.1291977
0.22714345 -0.26998073 -0.013523439 -0.18670012 -0.18768963 -0.30075476 0.09537334 0.1492768
-0.015887707 0.10085276 0.17714837 -0.060699895 0.095288225 0.24477659 -0.21238816 0.2652375
0.16201016 0.27803436 0.2474555 0.12927404 0.07939395 0.25778884 0.12877962 0.044245303
-0.29184136 0.12941512 -0.21347497 -0.16285868 -0.08860044 0.06948817 0.19543847 -0.23273325
-0.040632784 -0.18764773 0.19734569 0.1862627 -0.24217486 -0.07815251 0.11708126 0.20258863
0.12853499 0.23027787 0.05752656 0.14610896 -0.03818959 -0.017698089 0.13071766 -0.07358446
-0.20678665 0.2942593 0.18012875 -0.07833199 0.29481974 0.21990484 -0.15923893 -0.062269658
0.290425 0.27381805 0.28640148 0.25850135 -0.2896234 -0.19482422 0.222401 0.29639447
-0.15910533 0.12812409 -0.27621445 -0.13281156 -0.07396834 -0.035406243 -0.26926672 0.21743864
-0.14872266 0.24668004 0.1283535 -0.29905444 -0.19215599 0.1404999 0.20003384 -0.11336289
0.27633736 -0.03208781 -0.16168515 -0.13617632 0.14685665 -0.28948125 0.005834013 -0.27076268
0.03764285 -0.001795087 0.29127452 0.07998463 0.060354516 0.18135837 0.12619516 -0.10093947
-0.22668973 0.004597008 0.05088228 0.14884861 -0.26931456 0.28545022 0.09543654 0.21085054
-0.05347602 -0.10453226 0.22310923 -0.039875124 -0.15590529 -0.13868348 -0.024080774 -0.28544077
-0.26988313 -0.29903165 -0.20655474 -0.19913216 0.21313553 0.17694338 0.29058844 0.14595667
-0.29064485 0.22339621 -0.08254433 0.28397787 -0.26520622 0.09687736 -0.17987157 0.24079368
0.26613712 -0.2143907 -0.23392063 0.13358447 0.3000094 -0.14652784 -0.25645113 -0.26490042
0.22708595 0.083483495 0.21623532 0.0075167804 0.05110791 0.29980242 -0.0011855662 -0.063745916
0.076329015 -0.00439808 -0.15985982 0.19126631 -0.03981922 -0.15682782 0.16339101 0.19122043
-0.14494492 0.051295906 0.23641072 -0.07554497 0.13658842 -0.11971192 0.19162326 -0.25206932
-0.2078915 -0.25919768 -0.036776315 -0.2399308 0.12519673 -0.00016435079 -0.2919571 0.14305106
0.25927883 0.14564449 -0.30043486 0.0991743 0.2675802 0.23161215 0.18520412 0.16158584
0.23368551 0.047133755 -0.22675806 0.17675044 -0.018844053 0.16690211 -0.12662202 0.24667671
0.09661654 -0.041018605 -0.13328531 -0.056177225 -0.16317609 0.12976126 -0.04904878 -0.042091705
0.0077673765 0.12516056 0.005769995 -0.005215644 -0.29651374 0.06618518 0.17331383 -0.21646328
-0.2908451 -0.28971085 0.18676046 0.16129315 0.18836264 0.20015904 -0.16054863 -0.20634565
-0.29064897 0.058350295 0.058167066 -0.14328364 -0.26278684 -0.11928953 0.13530152 0.23109685
0.02408823 -0.16202903 -0.1673339 -0.26478395 -0.09953354 -0.30105048 -0.11378464 -0.30139622
-0.16846614 -0.14175592 -0.19464669 -0.21092832 -0.024426043 0.1066958 0.16028672 -0.0063093603
00000000: 40d9 90bc 48b3 833e 1b99 b43d 9874 90be
00000010: 8d66 bcbd 760b 453e 4f06 f23b 9f87 b83d
00000020: e621 543d 01c5 6c3e 7946 77bd 0899 f4bd
00000030: 7c94 9dbd 1332 503e 513e 42be 6490 793d
00000040: b097 903e 4c38 4abe f8ca 4fbe 84f0 9f3d
00000050: 0013 933e c6f2 74be 102b 603e 674c 04be
00000060: 4b98 683e ea3a 8abe 6a91 5dbc 512e 3fbe
00000070: b631 40be 87fc 99be 1953 c33d 04dc 183e
00000080: f026 82bc e48b ce3d 6266 353e 74a0 78bd
00000090: 7926 c33d b7a6 7a3e 487c 59be 36cd 873e
000000a0: fee5 253e 855a 8e3e f964 7d3e 6a60 043e
000000b0: 4c99 a23d e6fc 833e cede 033e 903a 353d
000000c0: 3b6c 95be 6685 043e 2f99 5abe 6dc4 26be
000000d0: 2674 b5bd d04f 8e3d 0621 483e a051 6ebe
000000e0: 906e 26bd ba26 40be fd14 4a3e a6bb 3e3e
000000f0: b0fc 77be 6c0e a0bd 4dc8 ef3d 6573 4f3e
00000100: ad9e 033e f6cd 6b3e f8a0 6b3d 969d 153e
00000110: b06c 1cbd 95fb 90bc dada 053e 73b3 96bd
00000120: e1bf 53be 28a9 963e ac73 383e 866c a0bd
00000130: 9df2 963e bc2e 613e 880f 23be 780e 7fbd
00000140: 96b2 943e e131 8c3e 37a3 923e 4a5a 843e
00000150: 8549 94be 0080 47be 16bd 633e 04c1 973e
00000160: 82ec 22be f632 033e fb6b 8dbe c1ff 07be
00000170: b77c 97bd 2306 11bd 54dd 89be 3ca8 5e3e
00000180: c14a 18be b199 7c3e 1a6f 033e aa1d 99be
00000190: 8ac4 44be 35df 0f3e acd5 4c3e ce2a e8bd
000001a0: 177c 8d3e 826e 03bd cb90 25be ce71 0bbe
000001b0: 9761 163e e336 94be 402b bf3b 68a1 8abe
000001c0: 642f 1a3d 2049 ebba ef21 953e fbce a33d
000001d0: 4c36 773d 02b6 393e 4e39 013e 5ab9 cebd
000001e0: 5a21 68be 80a2 963b f069 503d c56b 183e
000001f0: 99e3 89be 8826 923e 3c74 c33d 34e9 573e
00000200: ac09 5bbd 0215 d6bd bf76 643e 1954 23bd
00000210: a3a5 1fbe 0b03 0ebe 0b45 c5bc 4b25 92be
00000220: 1f2e 8abe ad1a 99be 1683 53be 4de9 4bbe
00000230: 3340 5a3e a530 353e 02c8 943e aa75 153e
00000240: 67cf 94be fac1 643e 000d a9bd 8c65 913e
00000250: 1cc9 87be a367 c63d 4130 38be 9e92 763e
00000260: 2043 883e 3c89 5bbe e488 6fbe 5eca 083e
00000270: d59a 993e 650b 16be 904d 83be 07a1 87be
00000280: 3889 683e 65f9 aa3d cb6c 5d3e 534f f63b
00000290: 8756 513d b47f 993e 0065 9bba 388d 82bd
000002a0: 6352 9c3d c51d 90bb 4bb2 23be 51db 433e
000002b0: 7a19 23bd 7997 20be f94f 273e 4acf 433e
000002c0: 716c 14be a81b 523d a715 723e 52b7 9abd
000002d0: d6dd 0b3e 862b f5bd e338 443e 3b0f 81be
000002e0: 82e1 54be 8fb5 84be c3a2 16bd 6bb0 75be
000002f0: 9233 003e 9455 2cb9 677b 95be fa7b 123e
00000300: 32c0 843e d423 153e 99d2 99be e51b cb3d
00000310: 4600 893e bc2b 6d3e 26a6 3d3e c276 253e
00000320: 414b 6f3e 530f 413d 4433 68be 11fe 343e
00000330: d85e 9abc 63e8 2a3e 34a9 01be d298 7c3e
00000340: e4de c53d 2003 28bd f27b 08be 171a 66bd
00000350: a217 27be 23e0 043e 60e7 48bd 5a68 2cbd
00000360: 7a85 fe3b 172a 003e 3a12 bd3b fee7 aabb
00000370: a6d0 97be 188c 873d 2e79 313e 8da8 5dbe
00000380: a6e9 94be fb54 94be 223e 3f3e 082a 253e
00000390: 23e2 403e 7ef6 4c3e dc66 24be 464c 53be
000003a0: f1cf 94be b800 6f3d 9740 6e3d f2b8 12be
000003b0: ff8b 86be 124e f4bd 7b8c 0a3e a7a4 6c3e
000003c0: ae54 c53c f0ea 25be 9459 2bbe c391 87be
000003d0: 3ed8 cbbd 4a23 9abe ec07 e9bd 9b50 9abe
000003e0: 6382 2cbe 7728 11be 7651 47be 98fd 57be
000003f0: 2019 c8bc 5483 da3d 3422 243e c0be cebb

linear1.bias f4 [256]
-0.0983 -0.022210393 -0.17232965 0.011154193 -0.1895797 -0.06356551 -0.2369109 -0.14482932
0.05608743 0.10109071 0.24583255 -0.06777866 0.082170196 0.13460612 0.02532515 0.009017814
0.23865509 0.2924613 -0.22032547 0.060004823 0.00525855 0.17558528 0.09761909 0.043514162
0.24741992 -0.18044618 -0.2044708 0.21630396 0.18860255 0.23215081 0.08582296 0.14977401
0.18908408 -0.21267796 0.08035113 0.28848836 -0.26449275 -0.16273482 0.14826345 0.23969832
-0.23446614 -0.21001725 -0.04557526 0.28943443 0.24055535 0.17118996 -0.16016006 0.21749431
0.10598369 -0.050136298 -0.10749195 0.16136996 -0.10163771 0.09080681 -0.29077625 -0.21183138
-0.26326486 0.23654793 0.2796609 0.010920243 0.2712772 -0.17256242 -0.054387365 -0.01746025
-0.19137888 0.30393443 0.118119426 -0.06597046 0.24148373 -0.048913598 -0.06333937 0.007448946
0.03463574 0.11520713 -0.060766276 -0.25069532 0.17135462 0.21679476 0.13259597 -0.055650905
0.30484375 -0.23054595 -0.13311788 0.11102149 -0.18185505 0.11295219 0.22647233 -0.2281734
-0.23174481 -0.13214011 0.09131676 -0.074100785 -0.018534994 0.08294459 0.03024783 -0.2669599
-0.26069623 -0.21156074 -0.19267741 -0.015081351 0.05340909 0.06574132 0.032333117 0.09570497
0.21032885 0.15696925 0.101162925 0.27130637 -0.13574262 -0.11745682 -0.041985083 0.2679749
-0.008336501 0.2589649 0.0078060627 0.18067159 0.28039354 -0.06142783 0.108083814 -0.13863388
0.061584443 -0.054453406 -0.22246969 -0.089434296 -0.28472924 -0.030071897 0.23881227 -0.14461744
-0.03901996 -0.2861502 0.1874072 -0.099442035 0.20964281 0.13584562 0.012641507 0.07426152
-0.20705144 0.1130799 0.17607196 0.1934327 0.13154323 0.06285611 -0.12503019 -0.2180671
-0.25617948 0.107750244 0.039210945 -0.24531943 0.2627048 -0.005706236 0.28633028 -0.20662957
0.25863045 -0.009476775 0.24186961 0.12709211 0.10661239 0.04646868 -0.14219727 0.14448197
0.14324293 -0.2874104 -0.2604386 -0.22693747 0.009333776 -0.11938945 -0.22021493 0.008525109
0.08879103 0.09348064 -0.17504556 -0.1899165 -0.04002893 0.12097777 -0.2051258 -0.18129772
0.079081565 -0.045750763 0.19683607 0.106421426 0.23631692 0.18211448 -0.18934861 -0.119767316
0.14508751 0.15154305 0.18486056 -0.16777176 -0.1353404 -0.08537186 -0.074920565 -0.15995003
0.1890703 0.042904463 0.23577283 -0.06701546 -0.28300047 -0.15762837 0.037008863 0.21860771
-0.010356243 0.13083382 -0.19981232 0.074961886 -0.013173435 0.07933368 0.08216486 0.156816
0.2526014 -0.2074718 0.016650667 -0.23558713 -0.1749763 -0.106764026 0.09894765 0.05101923
0.15511248 0.1986964 -0.27458987 0.22507946 -0.23481259 0.0039329827 0.17495702 0.18751469
0.2734745 -0.042243477 0.26038912 -0.061986808 -0.2091301 0.100936 -0.04423502 -0.047370184
0.26575246 0.093560494 0.028634015 -0.083141685 0.19410042 -0.28317708 -0.18130422 0.030386696
0.17707272 0.24849333 -0.21121956 -0.08849943 0.27817392 0.24714993 -0.18326932 0.24692963
-0.27602354 0.07377308 0.09688136 0.2976184 0.018067757 0.28927347 0.106138244 -0.0025053492
00000000: 8351 c9bd 92f2 b5bc 2f77 30be 14c0 363c
00000010: 2e21 42be a22e 82bd c598 72be 234e 14be
00000020: efbb 653d a508 cf3d 87bb 7b3e 8acf 8abd
00000030: d948 a83d 30d6 093e b076 cf3c 74bf 133c
00000040: 0062 743e 7dbd 953e 009d 61be 9ec7 753d
00000050: ea4f ac3b a1cc 333e 84ec c73d e83b 323d
00000060: a65b 7d3e e2c6 38be cb60 51be c97e 5d3e
00000070: 0721 413e f1b8 6d3e f3c3 af3d 5c5e 193e
00000080: 429f 413e 40c8 59be 228f a43d bfb4 933e
00000090: 986b 87be f5a3 26be 60d2 173e 7a73 753e
000000a0: e417 70be c30e 57be 20ad 3abd c030 943e
000000b0: 2454 763e 6c4c 2f3e 0001 24be d4b6 5e3e
000000c0: fa0d d93d b85b 4dbd bd24 dcbd 2b3e 253e
000000d0: 6f27 d0bd ecf8 b93d a0e0 94be 53ea 58be
000000e0: a7ca 86be 9f39 723e b72f 8f3e d2ea 323c
000000f0: d8e4 8a3e 34b4 30be 49c5 5ebd cc08 8fbc
00000100: d3f8 43be 4b9d 9b3e 99e8 f13d 851b 87bd
00000110: 8347 773e a059 48bd 12b8 81bd 4a16 f43b
00000120: 35de 0d3d b7f1 eb3d 0fe6 78bd 235b 80be
00000130: 9677 2f3e 72ff 5d3e 3dc7 073e 34f2 63bd
00000140: 7b14 9c3e 3d14 6cbe 0e50 08be 3c5f e33d
00000150: 3638 3abe 7a53 e73d 5de8 673e 4aa6 69be
00000160: 834e 6dbe bd4f 07be 4804 bb3d 27c2 97bd
00000170: b3d6 97bc dade a93d 4cca f73c f8ae 88be
00000180: fa79 85be 61a3 58be 3a4d 45be c517 77bc
00000190: 7dc3 5a3d 63a3 863d bb6f 043d f800 c43d
000001a0: 7260 573e 8cbc 203e 822e cf3d abe8 8a3e
000001b0: 1d00 0bbe 348d f0bd 8df8 2bbd 0234 893e
000001c0: d295 08bc 0c97 843e 00ca ff3b f901 393e
000001d0: be8f 8f3e c09b 7bbd 0c5b dd3d 0af6 0dbe
000001e0: f83f 7c3d 890a 5fbd 18cf 63be 5429 b7bd
000001f0: 08c8 91be 5759 f6bc 348b 743e 9816 14be
00000200: 65d3 1fbd 4782 92be ace7 3f3e 44a8 cbbd
00000210: 9bac 563e 1d1b 0b3e 531e 4f3c 6c16 983d
00000220: 4b05 54be 6f96 e73d 354c 343e 3913 463e
00000230: 45b3 063e b4ba 803d ea07 00be fb4c 5fbe
00000240: f529 83be 29ac dc3d a89b 203d 0435 7bbe
00000250: 3e81 863e 61fb babb e299 923e b496 53be
00000260: 366b 843e 7a44 1bbc abac 773e 6f24 023e
00000270: 9957 da3d f155 3e3d 299c 11be 15f3 133e
00000280: 46ae 123e 7527 93be 3558 85be 4c62 68be
00000290: b2ec 183c 7582 f4bd 0680 61be e6ac 0b3c
000002a0: 12d8 b53d c772 bf3d 253f 33be 7979 42be
000002b0: 60f5 23bd 31c3 f73d 7f0c 52be 1ca6 39be
000002c0: 84f5 a13d 2765 3bbd 658f 493e 7af3 d93d
000002d0: 10fd 713e 387c 3a3e 9ae4 41be 9148 f5bd
000002e0: d291 143e 1a2e 1b3e 164c 3d3e 5ccc 2bbe
000002f0: ac96 0abe 71d7 aebd f46f 99bd f1c9 23be
00000300: a59b 413e 97bc 2f3d 6f6e 713e 673f 89bd
00000310: 70e5 90be 5569 21be 9b96 173d b3da 5f3e
00000320: 3bad 29bc 4df9 053e 9a9b 4cbe 9e85 993d
00000330: 64d5 57bc b279 a23d 0d46 a83d 6094 203e
00000340: f854 813e 7d73 54be fb66 883c c13d 71be
00000350: fd2c 33be 19a7 dabd 11a5 ca3d 8af9 503d
00000360: ced5 1e3e 1277 4b3e 0b97 8cbe 3b7b 663e
00000370: b672 70be 40e0 803b ef27 333e da03 403e
00000380: da04 8c3e 7f07 2dbd b951 853e e1e5 7dbd
00000390: 3326 56be 89b7 ce3d c82f 35bd 3d07 42bd
000003a0: b510 883e a59c bf3d e291 ea3c 3046 aabd
000003b0: 43c2 463e 96fc 90be d0a7 39be 85ed f83c
000003c0: 8d52 353e 0975 7e3e f149 58be 303f b5bd
000003d0: d06c 8e3e df14 7d3e f4aa 3bbe 1fdb 7c3e
000003e0: f552 8dbe 5716 973d bc69 c63d 7061 983e
000003f0: d502 943c a71b 943e 025f d93d c930 24bb

linear2.weight f4 [3, 256]
0.012828554 0.03503034 0.016438695 -0.028616749 -0.051801056 -0.037500147 -0.0189697 0.021697525
-0.0036898286 -0.04600529 -0.052889798 0.05078869 0.050183825 -0.034414005 -0.062173985 0.02561444
0.007899089 -0.0068944944 -0.035690915 0.032702163 -0.06427789 -0.00438209 0.038695738 0.03843282
0.0012834598 -0.016678298 -0.00042267144 0.0068001174 0.015154116 0.0022225482 -0.009888871 0.008166105
0.059095025 0.028017834 -0.008445622 0.05055286 0.041936543 0.020748615 0.00774325 0.008618949
-0.040455785 0.019317904 -0.021919936 -0.042547017 0.011195863 0.054584548 0.026462428 -0.03393068
0.006534308 0.01573649 -0.009942816 -0.03876008 0.021850571 0.0018555446 0.0060952557 0.032684006
0.016114237 -0.018255897 -0.046775047 -0.047451034 -0.03348864 -0.024277164 -0.060733613 -0.029012674
0.047723267 -0.010579955 0.02767711 0.041085135 -0.02157495 -0.040136613 -0.058440447 0.059556484
-0.05040559 0.020557929 -0.029896993 0.0483249 0.010440938 -0.05397866 0.070800036 0.05138915
0.06406678 0.044255152 0.017287856 0.015583538 -0.029312575 0.03618997 -0.027884392 0.025800155
0.05912067 0.0132793505 -0.07338726 -0.060772717 0.017520802 -0.0046607186 -0.06765361 -0.04029989
0.0015887618 -0.03476222 -0.023884369 -0.046179645 -0.022368275 0.062157936 0.030765459 -0.0045390343
0.0374978 0.006011554 0.0486574 0.039859787 -0.0109049985 0.0020642765 0.026889505 -0.0442421
0.015775394 0.02814766 -0.05837249 0.03906752 -0.00045736824 0.01500884 0.0676995 0.047660336
-0.03618013 0.000474562 -0.016693588 -0.049931854 0.008183266 -0.04133483 -0.025541207 -0.04405176
0.015352724 0.027026715 -0.030909315 0.02935716 0.037550956 0.0284358 0.019952377 -0.022422692
0.05547626 0.03650655 0.023707392 0.05556455 0.044120632 0.046589214 -0.047737077 -0.026558362
0.027146418 0.04412286 0.058115177 0.026586778 -0.046337053 -0.034533907 0.016548244 0.008665232
0.04203745 -0.049070913 -0.03171624 -0.028224016 -0.042979017 -0.049683973 0.007670431 -0.010182242
0.04335131 0.029639117 -0.018667318 -0.009244146 -0.030108476 0.030722672 -0.026217632 -0.012617738
-0.05719257 -0.023832211 0.0074206353 0.05976609 0.024040027 -0.055296764 0.015251213 0.031707298
-0.050401747 0.001435639 -0.0015602532 0.001024432 0.035829403 -0.014299613 0.017955951 0.04744345
-0.0133873215 -0.02381211 -0.0034796265 0.007912151 0.00045001565 -0.04588761 -0.05019298 -0.021758614
-0.04458598 0.03737368 -0.0032690982 0.042127892 -0.014793053 -0.053496912 -0.06624218 0.010825036
-0.04988038 0.018037826 -0.03537142 -0.057000224 0.013300242 -0.015892746 -0.02206314 0.0082677435
0.012528269 -0.007396074 -0.016212083 0.04071669 -0.041115347 -0.04920422 0.028130334 0.052257754
-0.027049003 0.030780645 -0.036008865 0.038507592 -0.04033429 -0.013106378 0.054259267 -0.04408257
-0.046698086 0.023830555 -0.028959032 -0.0029809445 -0.033636417 -0.03166927 0.04702556 0.028509382
-0.040499862 0.0569709 0.054147948 0.054728996 0.017502995 0.04364583 0.013599684 -0.03053256
-0.0017018098 -0.046033613 0.056601256 0.030854322 -0.010881518 0.006594837 -0.021702807 0.042353608
0.0025417097 0.016980363 0.032290585 0.005649263 0.017199825 0.025451278 0.047502644 -0.03991412
00000000: db2e 523c f97b 0f3d 71aa 863c ac6d eabc
00000010: 582d 54bd c199 19bd 5866 9bbc 02bf b13c
00000020: 0dd1 71bb 0b70 3cbd f9a2 58bd cd07 503d
00000030: 8e8d 4d3d b3f5 0cbd 26aa 7ebd 60d5 d13c
00000040: 2e6b 013c 36eb e1bb a330 12bd b4f2 053d
00000050: 20a4 83bd a397 8fbb 6c7f 1e3d bc6b 1d3d
00000060: c439 a83a eda0 88bc 009a ddb9 85d3 de3b
00000070: f848 783c 2ca8 113b ee04 22bc 20cb 053c
00000080: a00d 723d a885 e53c 825f 0abc 8410 4f3d
00000090: a7c5 2b3d 00f9 a93c 17bb fd3b 7e36 0d3c
000000a0: f7b4 25bd 9540 9e3c 7091 b3bc c845 2ebd
000000b0: da6e 373c 0c94 5f3d bcc7 d83c e6fa 0abd
000000c0: c01d d63b d0e9 803c 31e7 22bc e4c2 1ebd
000000d0: f8ff b23c bf35 f33a b6ba c73b aadf 053d
000000e0: 0102 843c 648d 95bc 3197 3fbd 045c 42bd
000000f0: 622b 09bd e7e0 c6bc cfc3 78bd fdab edbc
00000100: 7979 433d 8c57 2dbc 1bbb e23c e348 283d
00000110: f3bd b0bc 4a66 24bd 405f 6fbd 80f1 733d
00000120: 1876 4ebd 1a69 a83c 8aea f4bc 55f0 453d
00000130: 7810 2b3c ba18 5dbd 9cff 903d 6e7d 523d
00000140: 7235 833d e444 353d 439f 8d3c 1952 7f3c
00000150: ed20 f0bc ef3b 143d cf6d e4bc d95a d33c
00000160: 8428 723d a291 593c 0f4c 96bd d0ec 78bd
00000170: c987 8f3c f1b8 98bb fa8d 8abd 7f11 25bd
00000180: 003e d03a d462 0ebd 27a9 c3bc de26 3dbd
00000190: ac3d b7bc 5299 7e3d d807 fc3c 2ebc 94bb
000001a0: 4b97 193d 92fc c43b fb4c 473d 0444 233d
000001b0: e1aa 32bc d048 073b 6147 dc3c 3437 35bd
000001c0: 663b 813c ec95 e63c fe17 6fbd 4405 203d
000001d0: edca efb9 a3e7 753c 09a6 8a3d 7c37 433d
000001e0: 9e31 14bd a2ce f839 fec0 88bc 5885 4cbd
000001f0: 1b13 063c b64e 29bd cb3b d1bc 9e6f 34bd
00000200: fe89 7b3c 2167 dd3c 8835 fdbc 6d7e f03c
00000210: 08cf 193d 32f2 e83c 2b73 a33c cbaf b7bc
00000220: 133b 633d e487 153d 0136 c23c a797 633d
00000230: d6b7 343d 55d4 3e3d f487 43bd ec90 d9bc
00000240: 2a62 de3c 2cba 343d 2e0a 6e3d 84cc d93c
00000250: eccb 3dbd 6d73 0dbd 2f90 873c 9ef8 0d3c
00000260: 762f 2c3d 95fe 48bd e3e8 01bd 0d36 e7bc
00000270: c40a 30bd 6c81 4bbd 3d58 fb3b 6bd3 26bc
00000280: 2591 313d bccd f23c 34ec 98bc c274 17bc
00000290: 0da6 f6bc 1dae fb3c 5cc6 d6bc a1ba 4ebc
000002a0: c242 6abd c53b c3bc cd28 f33b 4acd 743d
000002b0: 97ef c43c dc7e 62bd 39e0 793c 83df 013d
000002c0: 1072 4ebd 0d2c bc3a 6981 ccba 3c46 863a
000002d0: dac1 123d ed48 6abc 5c18 933c 1054 423d
000002e0: 7f56 5bbc 9d11 c3bc 720a 64bb f7a1 013c
000002f0: 14f0 eb39 a6f4 3bbd 2797 4dbd 1f3f b2bc
00000300: ca9f 36bd 2515 193d 5e3e 56bb 4c8e 2c3d
00000310: 905e 72bc 941f 5bbd fba9 87bd 7e5b 313c
00000320: 5f4f 4cbd 10c4 933c 9fe1 10bd 1179 69bd
00000330: 42e9 593c 8131 82bc c2bd b4bc 6e75 073c
00000340: 5e43 4d3c c45a f2bb 34cf 84bc 8bc6 263d
00000350: 9168 28bd 5d8a 49bd 9671 e63c 3a0c 563d
00000360: df95 ddbc b127 fc3c 087e 13bd 23ba 1d3d
00000370: 9235 25bd 22bc 56bc f73e 5e3d ed8f 34bd
00000380: 7e46 3fbd 4c38 c33c 7e3b edbc f35b 43bb
00000390: 57c6 09bd a3b7 01bd e09d 403d 828c e93c
000003a0: 2fe3 25bd 525a 693d 3dca 5d3d 832b 603d
000003b0: 7162 8f3c f8c5 323d 36d1 5e3c 6b1f fabc
000003c0: 430f dfba be8d 3cbd b8d6 673d 34c2 fc3c
000003d0: 6548 32bc 8119 d83b 16ca b1bc fa7a 2d3d
000003e0: d092 263b 671a 8b3c 2243 043d 741d b93b
000003f0: a6e6 8c3c 337f d03c 2292 423d fd7c 23bd

linear2.bias f4 [3]
0.057843376 0.030122207 -0.019041728
00000000: 2ded 6c3d d9c2 f63c 66fd 9bbc
